best_model.pth (torch, 48806 bytes, 5 tensors)

fc1.weight f4 [128, 24]
00000000: 526b 273e 7f0c babd b092 743c f002 65bc
00000010: dd43 6d3c f799 44bd 707e 113e 717a a33d
00000020: 3470 683d a8ec 89bd ce99 893d 9c9f 2e3e
00000030: 6c79 d63c d692 e1bd a343 353e 8d18 fd3d
00000040: 1cd0 c7bd 838e 06be b862 40be 3cd2 5cbd
00000050: f599 0ebe 0cfe 783e 331d 33be 6dfe b3bc
00000060: ef27 663d 0437 243e 0786 1fbd a963 123e
00000070: 83a1 c3bc 495b fabd bea1 253e 892a 723d
00000080: e3bf 7d3d c546 d1bd 2ace 23be a1e9 56bd
00000090: 4f04 3f3e 5ccf 723e 1e34 15bd 7da0 13be
000000a0: 6fef d13d 8bb1 993b 73b4 88bd 1fa7 14be
000000b0: 10f4 b9bd bd7a e1bc 202c 2a3e fed6 8ebc
000000c0: 5cda 93ba a6dd d73c 9272 c73c b09f 273e
000000d0: afa0 da3d d8b7 79bd 0654 8c3d aba0 5e3e
000000e0: cbb6 b6bc 52e1 993d d924 3bbe 4f5e 2dbd
000000f0: bd8a 32bc 86c6 883e 8a50 6dbd 96d7 7abd
00000100: cc2c 33bd 2994 3abe 3491 19be 4d62 893c
00000110: 4ca2 323e af7c 2abe 3d24 4b3e 192a 873e
00000120: 2288 88be 7295 8cbe 2f82 fabc 6ae0 2bbe
00000130: 5759 22be 1d0a d4bc b3a1 013e 43d2 57be
00000140: d39d 3bbe 1ae8 203d 268b c23d 8494 4abe
00000150: d434 acbe 3217 93be 2444 aabe d44c 21be
00000160: 7525 84be f4e8 66bd 5df1 203d 3251 813d
00000170: f8b5 003e 8add ae3e a845 123e bdcc a7be
00000180: e4b3 033e e858 d3bd 631a de3d c0e2 0fbd
00000190: 619c 1cbd f5e4 923d 58c4 9fbd e62f bf3c
000001a0: 47f2 763e c6fb 05be 64ee 27be 5d5e a8bd
000001b0: 9692 0fbd 535f c33b e1d4 72bc bb81 7c3e
000001c0: fac1 5ebd e4e8 7b3d 445f 70bb 3b7e 79bd
000001d0: c27f 22be 9883 293e 8b98 453d fb48 0dbd
000001e0: 1050 a73c 0054 ab3d 88f1 00be 3d57 ca3d
000001f0: dac1 7cbc 1947 f2bd 6298 c33d d2df 3e3e
00000200: f375 433e d17d 7cbd 6897 083e 88b4 2ebd
00000210: d546 3a3e f374 9d3d 1d31 9ebd eba2 ab3d
00000220: 60c6 c03d 5f7c 1c3e d9bf 163e 4ce8 f5bd
00000230: b173 33be 66ae 1b3d dac5 e3bd c711 013e
00000240: 0f62 04be 5f24 423e e1dc 9abc 6d3b f33c
00000250: 0d33 993c 03f7 30bd 1105 a1bd 1659 bc3c
00000260: 6738 503e c64f 7b3d f6cd 93bd 68c1 0d3e
00000270: 9f7f 563e cc54 693e 95c5 163d f87f 743d
00000280: 1673 3d3b b905 0d3e 32a1 5f3d 5894 8eba
00000290: a4a2 2b3e b7b9 2e3e f44c 07be 560f bc3d
000002a0: 7d84 423d 72b7 dd3d a923 6d3e e162 d0bd
000002b0: e5cb 1cbe 3715 27be 478d f6bd e19b 513e
000002c0: bb7f 81bc 5456 f1bd 5a83 0a3e 7913 2abe
000002d0: cbe6 8ebd 9ae6 703e eb99 7a3e 2222 e33d
000002e0: 6152 bc3d 00e3 ad3d 5c55 e0bc 9dc8 6dbd
000002f0: 64ac c63a f22f 423e 56bc 0dbe 68b4 cb3d
00000300: e18d 2b3e 205b 803d c5f0 e23c 7e70 5bbd
00000310: ecfd 54bd 36dd 6dbd 5670 15be b453 4c3e
00000320: dc61 99bd cf45 213d a888 10be b873 6d3e
00000330: 3265 e23d 97b2 debd e633 4ebd 5b9d 593e
00000340: e62c 36bd 40c5 033e 7610 0a3e f708 b2bb
00000350: ce10 163e 3512 9e3d 24a9 1cbd f590 f6bc
00000360: 0e4e 6fbd d4fa 9e3d 0255 d73b 5d0b c63d
00000370: 4352 03be f4ac 2cbc 6c20 d4bd b9c1 7cbd
00000380: c096 c33d 6da3 c73c eb78 483e 022d 93bd
00000390: a216 723e d2a2 ce3d faca 283e a81a ba3c
000003a0: f560 6f3e aeea 493e 4938 37be 5881 1d3e
000003b0: b00d 85bd 7a06 5e3e 62cc c83b febb f13d
000003c0: 9a7e 6a3e 1bf0 98bd 6adc 3a3e b1c4 b1bb
000003d0: 5d8a 323d 62a0 6bbe c8c2 183e 4c6a 423e
000003e0: 3ad9 56bd 6762 ad3d 9b45 06be 464d 28be
000003f0: 31ac 6e3e 77a8 4cbd 3716 27bd 3d7b 623e
0.16349533 -0.09084415 0.014927551 -0.013977751 0.014481512 -0.047998395 0.14208388 0.07982338
0.05674763 -0.06734592 0.06718789 0.17053074 0.026180945 -0.11014335 0.17701583 0.12358198
-0.097564906 -0.13140301 -0.18787658 -0.053911433 -0.13925917 0.24315661 -0.17491607 -0.021971906
0.056190427 0.16036612 -0.038946178 0.1429583 -0.023880726 -0.122244425 0.16174981 0.059122596
0.061950576 -0.10218576 -0.15996614 -0.0524689 0.18653987 0.23711914 -0.036426656 -0.1441669
0.102507465 0.004690354 -0.06675043 -0.14516877 -0.09079754 -0.027524346 0.16618395 -0.0174365
-0.0011280286 0.026350807 0.024346624 0.1636951 0.10675179 -0.060966343 0.06851964 0.21740977
-0.02230396 0.075136796 -0.18275775 -0.042326268 -0.010897336 0.2671396 -0.057938136 -0.061240755
-0.043743894 -0.18220581 -0.14996797 0.016770506 0.17444724 -0.16649126 0.19838043 0.26399305
-0.2666636 -0.27457768 -0.030579654 -0.16784826 -0.15854393 -0.025883729 0.1265934 -0.21076302
-0.18321924 0.03928385 0.09499197 -0.19783217 -0.33634055 -0.28728634 -0.33255112 -0.15751964
-0.25809827 -0.056374505 0.039292682 0.06314315 0.12569416 0.34153396 0.14284384 -0.3277339
0.12861592 -0.10319692 0.108448766 -0.035128355 -0.038235072 0.07172576 -0.078011215 0.02333827
0.24115859 -0.13084325 -0.16399533 -0.08221123 -0.035051905 0.0059622913 -0.014821262 0.24658863
-0.05438421 0.0615014 -0.0036677876 -0.0609114 -0.15869048 0.16554105 0.04824118 -0.034493428
0.020423919 0.08365631 -0.12592137 0.09879921 -0.015427077 -0.11829967 0.09550549 0.18640068
0.19087963 -0.061643425 0.13339007 -0.042652637 0.18191083 0.07688322 -0.07724211 0.083806835
0.09412837 0.15281819 0.14721622 -0.12007198 -0.17524602 0.038008116 -0.111217216 0.12604438
-0.12928031 0.18959187 -0.018904151 0.029691422 0.0187011 -0.04320432 -0.078622945 0.022991698
0.20334016 0.061355375 -0.07217018 0.1384331 0.20947121 0.22786254 0.036809523 0.059692353
0.0028907708 0.13771714 0.054597087 -0.001087795 0.16761261 0.17063032 -0.13212949 0.091826126
0.047489632 0.10826005 0.23158135 -0.1017511 -0.15312155 -0.16316687 -0.12038665 0.2046962
-0.015807977 -0.11784044 0.13526669 -0.1660899 -0.06977614 0.23525468 0.24472778 0.11090495
0.091954 0.084905624 -0.027384453 -0.058052648 0.0015157578 0.18963602 -0.13841376 0.09946519
0.16753341 0.06267381 0.027702698 -0.053574078 -0.05199997 -0.05807229 -0.14593634 0.19953805
-0.07489368 0.039373215 -0.1411463 0.23188674 0.11054458 -0.10873907 -0.050342463 0.21251433
-0.044476412 0.12868214 0.13482842 -0.0054331976 0.14654848 0.077183165 -0.038247243 -0.030098418
-0.058424048 0.077626854 0.006571413 0.09670136 -0.12824349 -0.010539282 -0.103577465 -0.061708186
0.09550238 0.02436992 0.19577377 -0.07186319 0.23641446 0.10089649 0.1648368 0.022717789
0.2337683 0.1971843 -0.17892565 0.15381372 -0.06496751 0.21682158 0.00612788 0.11803435
0.22899857 -0.074676715 0.18248144 -0.005425059 0.043588985 -0.230104 0.14918053 0.18985862
-0.052453257 0.084660344 -0.1311249 -0.16435727 0.23307873 -0.049965348 -0.04079267 0.22117324

fc1.bias f4 [128]
00000000: 6193 333e b7fa bf3e b855 5a3e 698b 2bbe
00000010: f7da c63e 5cc6 b93e 862e 7c3e a58a 0b3d
00000020: f7f1 613e 9e0e 1b3d 8c93 5a3c 84b5 583e
00000030: adb4 07bd bb94 85be 7cc8 953e 7197 3a3e
00000040: f954 fc3d f32b ba3d 45f2 ecbc 4751 543e
00000050: 6b3a bc3e d3f8 f43e 115a a2be 19ba 703e
00000060: e186 3a3e fd5e f93d 45d7 803e 39b9 be3e
00000070: 9184 8d3e 078f c63e 6fec f03c 232d 443e
00000080: fe30 343d e65b 0b3e 2b63 b9bd 20f6 513d
00000090: 5881 2b3e 92b0 8b3e 743b 8b3e 4a59 953e
000000a0: 3c80 c6bc 74c5 8fbd 79a9 62be c66e 3dbe
000000b0: 6222 a1bb 179f 193e a491 1a3e accf 8c3e
000000c0: 37f7 643e f5d5 4bbe 6ef2 c33e 099d ac3c
000000d0: 00ce ab3d 06b2 1abd 8a33 183e 64de deba
000000e0: fcdd 373e 5a9f ae3e f91b b23e ef47 b03e
000000f0: 17b3 683e 0824 3a3e 8ae6 753e e4cd 293e
00000100: d5e5 fc3d 8a74 8f3d a72f 7bbc e0a0 053e
00000110: c44a c53e 7c7d 94bc 4d18 483d 3269 8f3e
00000120: 4de5 3a3e e70c 123e 66b7 1cbe 16dc 91bc
00000130: 226f b0bd c038 a63e ebb3 3f3e 1f32 443d
00000140: 6193 b23e 927a 3f3c 5aa1 89bc 5f97 963e
00000150: 8082 99bd 4cb5 9bbb 371b 9d3e aa9e b93e
00000160: c64c 803e 31b8 933e 25cf fd3d 4b7c 06be
00000170: e6ea 893e 6861 9d3e 5966 493e c7b9 cb3e
00000180: 7afe a33e 0391 d73d fbb3 86ba f192 b03d
00000190: ed98 213e a4e7 ca3e a6ce a43e fe9e 683e
000001a0: 5ebc bb3d 8b84 513e 4895 173e 29a2 683e
000001b0: b52b a53e b9c6 483e f530 5c3e e0cb 23bd
000001c0: ec61 73be f45d cc3e a41f 8e3e e5d0 cc3d
000001d0: 713c 843e 5fd9 0e3e 40a1 493e 9584 4d3d
000001e0: 68c5 d23d 9ea1 8c3e b285 8f3e bed7 273d
000001f0: 2c0b 893d 2ab6 af3e 08e0 2ebd 9fd0 903b
0.1753669 0.37495968 0.21321762 -0.167524 0.38838932 0.3628415 0.24627122 0.03406777
0.22064959 0.037855737 0.013340842 0.21162993 -0.03313129 -0.26090035 0.2925452 0.18221833
0.12320895 0.09090414 -0.028924117 0.2073413 0.3676332 0.47846088 -0.3170934 0.2350849
0.18215515 0.12176321 0.25164238 0.3725069 0.27640203 0.38780996 0.029409615 0.19157843
0.043992035 0.13609275 -0.09052118 0.051260114 0.1674856 0.2728315 0.27193797 0.29169685
-0.024231069 -0.07020083 -0.22134961 -0.18499288 -0.004917429 0.15002094 0.1509462 0.2750219
0.2235993 -0.19905837 0.38270897 0.021070974 0.08388901 -0.037767433 0.1486341 -0.0017003533
0.17955774 0.3410595 0.34786966 0.3442988 0.22724567 0.18177807 0.24013725 0.16582447
0.123485245 0.0700465 -0.015331185 0.1304965 0.38533604 -0.018126242 0.0488513 0.28009945
0.18251534 0.14262734 -0.15304336 -0.01780514 -0.08614947 0.32465172 0.18720977 0.04789936
0.34878066 0.011686938 -0.016800571 0.29412362 -0.07495594 -0.004751837 0.30684826 0.36253864
0.25058573 0.28851464 0.12393025 -0.13133352 0.26937026 0.30738378 0.19667949 0.39790174
0.32030088 0.10525706 -0.0010277027 0.08621777 0.15780993 0.39629853 0.3218891 0.227169
0.091667876 0.20460717 0.1480304 0.22718109 0.32259908 0.19607057 0.2150305 -0.039989352
-0.23767823 0.3991543 0.27758515 0.10000781 0.25827363 0.13950108 0.19690418 0.05017527
0.102915585 0.27467054 0.2803169 0.040977232 0.06691584 0.34318668 -0.04269412 0.004419401

fc2.weight f4 [64, 128]
00000000: 38c7 4abd 861d 99bc dae3 94bc ecf1 f8bd
00000010: c4f3 b2bd 716f e53c 15c9 c8bd c54d 1c3d
00000020: bfa7 1fbd d136 d03b 59e3 573c 1648 073d
00000030: 51b3 553d f807 a8bc f510 223d cc30 88bd
00000040: 971a 6d3b 2b89 c9bd 7b6d 11bc b834 b2bd
00000050: e3a3 56bd 6653 af3d babf 06bc cd47 48bd
00000060: b443 3bbc a96d 1ebd e488 183d ee86 43bd
00000070: 6013 843d 4c34 ab3c 1f5d 423d 6ad7 f8bc
00000080: 2c69 84bd e13e a9bd 9437 b23c be7d 42bd
00000090: d777 19bc 156d 03bd 8dc7 333d c4e4 bcbd
000000a0: 562f c4bd af26 6cbd 23a5 9ebc b24f 173e
000000b0: a72e 643d ab46 593d 7676 7bbd 0f4f 873c
000000c0: cf92 5ebd 383d 02bd f458 b2bc 18d7 843d
000000d0: a40c 7f3b f4f9 debd b6e7 26bd 5d26 9cbd
000000e0: e294 393d 4ff2 9ebd cf6f 8b3d e205 323d
000000f0: f32e 01bc 721a b0bc 53d9 173d 773d 95bd
00000100: 3e29 013d 4905 44bd ad7a bcbd 0490 dcbb
00000110: 8135 bfbd d632 57bd 7e84 bf3c 6169 7ebd
00000120: dce1 efbc 6c0b 9cbd 821f 5e3d fb39 99bd
00000130: 1298 4dbc e1f0 793d 8154 a5bd 046c 033c
00000140: 8c6a a5bc c198 153b f1dc be3d 7bbd b23c
00000150: b132 7a3c f4d9 78bd 5953 a73d 572d 2fbd
00000160: 075a 583d 83d1 ed3c 5c93 babd 6a12 b43d
00000170: cec1 4dbd 3b3f 783c 0f69 933a fff4 16bd
00000180: 2400 7dbd fea5 b0bd e811 ecbc ae55 12bd
00000190: 42ae 87bc f3fd 50bd 8b5f af3a 25a1 503b
000001a0: 5858 823d 8612 e3bc 7de5 26bc cd7c c43b
000001b0: b686 36bd 106d 923c db82 06bd 42d7 a83c
000001c0: d514 6bbd f17a 643d c624 a6bd d70d 86bd
000001d0: f37e 903b 073e 1dba 5146 8ebd 3b64 fbbc
000001e0: 82c9 343d 2d0f 0d3d bb49 583d 9e53 fabc
000001f0: 7450 c4bd 8e04 34bd af20 98bd 2e97 67bc
00000200: ff7e 663c 1190 e23d 3919 cd3d 16ee 33be
00000210: 3997 183e 3640 9f3d 5c95 c2bc 994f ac3d
00000220: f12e fd3d 9e61 a63d 964f 1b3e e139 f8bc
00000230: 7b51 fe3d 6d6d 983c d04e 213d 30e7 123e
00000240: 3585 743d db99 e43d b9ce 913d 9e77 fc3d
00000250: d55b 183e d735 023e 1ee6 833d fa17 0e3d
00000260: 01a0 fc3d 497f e6bc d6be 113d fec4 a33c
00000270: 43c8 233e 47dd 973d 75b5 3d3c 00d5 9a3d
00000280: ba3e 73bc 30c7 6c3d 322b c1bd cf55 8c3d
00000290: 9292 553d 6dee f33d 6bfc df3d 2442 403d
000002a0: 6a6e a7bd 17be fe3d a5bc 79bd 6d5e 88bd
000002b0: 04a1 0b3c 6a69 f83d 7309 81bc c413 dd3c
000002c0: 8b6c 2c3e 2e7c 92bd a12f 813d 1c90 fabc
000002d0: 5109 063e bea2 09be 4c0b 63bc 6e29 d4bd
000002e0: 6191 bebc 72f3 1b3c d707 2e3e 7a56 ac3d
000002f0: cb1d 2a3d bc5e 83bb d5d1 313d a841 703d
00000300: bf57 be3d ce24 63bc d011 063c 2360 903d
00000310: 8839 ae3d 47a5 97bc d627 cdbc fc23 45bb
00000320: f3d2 223d a650 833b 68f5 0ebe c003 e5bd
00000330: 4cec 143d 1833 6f3d a355 ca3c 70ce 933d
00000340: ea00 473c 45d3 973d b292 e8bd 9c47 4c3e
00000350: 4e75 1abc f8b1 18bd f89f 923d 1ad8 fd3d
00000360: 2365 8b3d da93 8abb 90c1 0f3e a1ee 31be
00000370: b741 113c c982 293d acb2 553d a6f6 1d3e
00000380: db63 0a3e 7a63 1cbd c1dc ce3d a1cf 913b
00000390: 204e 233e 15b8 403e 8580 a03d 6aff ae3d
000003a0: 6d56 d73d ea3d 11bb 6c3a 8a3b c0d2 023e
000003b0: e25f c33d b192 ea3d e2da c13d d1c1 463d
000003c0: dc23 73be 207f 063e 460d f83d 5d05 233d
000003d0: f6f6 a13d 3785 be3d 3b87 f73d 0000 993d
000003e0: 143a fd3d f0f3 183e 191b e53d 5d14 0c3d
000003f0: 4e50 ccbc 7931 093e ff00 9f3d 21a7 003e
-0.049506396 -0.018690836 -0.018175054 -0.12155518 -0.08737901 0.028007241 -0.09803978 0.038160104
-0.038978335 0.006354191 0.0131767625 0.03302773 0.052172963 -0.020511612 0.039566953 -0.06649932
0.003617918 -0.09840616 -0.0088762 -0.087014616 -0.05240239 0.08560829 -0.008224422 -0.0488966
-0.011429716 -0.0386788 0.037239924 -0.0477361 0.06449008 0.02089896 0.04745209 -0.030376155
-0.064653724 -0.08263946 0.021755017 -0.0474832 -0.009366951 -0.03208645 0.04389148 -0.09223321
-0.09579341 -0.05765408 -0.019365853 0.14776495 0.055708554 0.05304591 -0.06139227 0.01651719
-0.054339226 -0.031796664 -0.021770932 0.064863384 0.0038917447 -0.108875185 -0.04074832 -0.07624505
0.045308 -0.077610604 0.06808435 0.04346264 -0.007884729 -0.021496985 0.03707249 -0.07287114
0.031533472 -0.047856603 -0.09203086 -0.006731035 -0.09336377 -0.052538715 0.023378607 -0.062112216
-0.029282503 -0.07619366 0.054229267 -0.07481762 -0.012548463 0.061020736 -0.080727585 0.008021358
-0.020192407 0.0022826644 0.09319485 0.021818867 0.015270875 -0.06075473 0.08170194 -0.04276785
0.05282023 0.029030567 -0.09110138 0.08792575 -0.050233655 0.015151794 0.001124652 -0.03685474
-0.061767712 -0.086254105 -0.028817132 -0.03572624 -0.016562585 -0.051023435 0.0013379914 0.003183433
0.063645065 -0.027718794 -0.01018655 0.0059963227 -0.044562064 0.01787427 -0.032839637 0.020610455
-0.057392914 0.05578131 -0.08112483 -0.065456085 0.004409665 -0.00059983175 -0.069470055 -0.030687442
0.044137485 0.0344383 0.05280469 -0.03055745 -0.09585658 -0.043949656 -0.07428109 -0.014135165
0.014068364 0.11062635 0.100145765 -0.17571291 0.14901437 0.07775919 -0.02375286 0.084136195
0.12362469 0.08124088 0.15167078 -0.030301036 0.12417885 0.018606866 0.039381802 0.14346004
0.05969735 0.11162158 0.07119507 0.12327503 0.14878781 0.12715851 0.06440376 0.034690835
0.12335206 -0.028136866 0.035582386 0.019991394 0.15994363 0.07415252 0.011578907 0.07560158
-0.014846498 0.057807148 -0.09432067 0.06852304 0.052141733 0.119107105 0.10936817 0.046938077
-0.08175357 0.124386005 -0.06097092 -0.06658635 0.008522276 0.12129481 -0.015751576 0.026986964
0.16838281 -0.07152592 0.063079126 -0.030586295 0.13089491 -0.13440987 -0.013857674 -0.103594646
-0.023262681 0.009518491 0.16995178 0.084149316 0.04153232 -0.004009096 0.043413002 0.058656365
0.0929408 -0.013863755 0.008182958 0.070495866 0.08507067 -0.018511428 -0.02504341 -0.0030081263
0.039751958 0.004007417 -0.13960803 -0.11182356 0.036358163 0.058398336 0.024699038 0.07217109
0.012146214 0.07413343 -0.11356105 0.19949192 -0.009427382 -0.0372791 0.07159418 0.12394734
0.068064 -0.004229051 0.14038682 -0.17376186 0.008865765 0.041384492 0.052172348 0.1542612
0.13514654 -0.038180806 0.10100699 0.0044498 0.15947771 0.18820222 0.07837013 0.0854481
0.10514531 -0.0022162148 0.00421839 0.12775707 0.095397726 0.114537604 0.09465577 0.04852468
-0.23744148 0.13134432 0.12111907 0.039800037 0.07908432 0.093027525 0.1208634 0.07470703
0.12364593 0.14936805 0.11186809 0.034199107 -0.024940636 0.13397779 0.07763862 0.12563755

fc2.bias f4 [64]
00000000: 9065 a6bd 0c2a 973e cab9 563e 6169 aa3e
00000010: 5ee6 1e3e fad1 683e 8701 7b3d cd7b 66bd
00000020: f7b5 2b3e 1d80 8f3e 78f3 f73e a3a4 a3bc
00000030: 1ee9 633e 3117 783e 71e3 cabd 07d1 5e3e
00000040: 0ef1 f5bd 7b30 813d 11f9 da3d 4f33 503e
00000050: d461 893d c5a5 843e c2df 8b3e a719 00bc
00000060: 94ef 013d 0ce9 213d 00b6 803d d3aa afbd
00000070: dabc 403e eb5a 5b3e a6fe 8e3e fc08 2b3d
00000080: 301b e93c f7ad 2b3e ba4f 683e d5d1 8f3e
00000090: ac80 9c3e b373 04bd bd38 583e 3914 813e
000000a0: aed6 2b3e e890 903e 3e4a 4d3e 95cf 363e
000000b0: 04b6 813e 6b69 113e 9af9 613e 26c1 5ebd
000000c0: 5956 f83c 504a 423e 132d 123e a047 03be
000000d0: 69b7 103d 1b1b 2d3d 457f fe3c 7aeb e0bd
000000e0: 83b4 4cbd 6ec7 92bd 9913 ff3d 326a 073d
000000f0: 95ba ea3d a3e5 943e a110 6b3d f8c7 53bd
-0.0812484 0.29524267 0.2096931 0.33283523 0.15517566 0.2273635 0.061280753 -0.05627041
0.16768633 0.2802743 0.4842794 -0.019975966 0.22256896 0.24227597 -0.09906662 0.21759425
-0.12008868 0.06308075 0.10692037 0.20332073 0.06708112 0.25907722 0.2731915 -0.007818616
0.03172262 0.03952889 0.06284714 -0.08577504 0.18822041 0.21421401 0.27928656 0.041756615
0.028455347 0.16765581 0.22686663 0.28089777 0.3056692 -0.032336902 0.21115394 0.2521074
0.16781113 0.28235555 0.20047852 0.17852624 0.2533418 0.1420037 0.22067872 -0.05438342
0.030314611 0.1897366 0.14275007 -0.12820292 0.035331164 0.042262178 0.031066546 -0.109824136
-0.049976837 -0.071669444 0.1245491 0.03306026 0.11461369 0.2908145 0.057388905 -0.051704377

fc3.weight f4 [1, 64]
00000000: 146a 86bd ca3a f63d 5d3a 1b3e 8e02 9c3d
00000010: 87d3 333e d64e c13d df1f 11bd 2a2e 56bd
00000020: 335e fd3d 1162 223e 84f8 be3d 5aa4 8bbd
00000030: 364d 2e3e 2181 133e 1b17 67bc 29a2 053e
00000040: 378d bdbd 6942 97bd 332c 383e 92ce 363e
00000050: d1f1 4abd ce2c 013e b2db c03d 0b46 dfbc
00000060: 7ce9 c6bd b030 4abb 47ea 5bbc 894c 59bd
00000070: 6818 3b3e a2be 013e 87a5 c33d 7587 cebd
00000080: 6ba1 88bd ae28 033e 0d82 8a3d ebfe 233e
00000090: db45 d93d 3ff7 8fbc 7dfb 0b3e db3e de3d
000000a0: 0ea8 373e 9dea fe3d 0744 093e 9f45 0d3e
000000b0: 1f04 bd3d 8459 063e 6cbb bd3d 8c2f 33bd
000000c0: af4c 00be 14e6 2e3e d392 2d3e 8203 a5be
000000d0: 1607 2ebd 48fe 4ebd b6c9 72bd f4d0 bcbd
000000e0: 3847 6ebd d75c 88be 14e3 273e 9fdf 0dbd
000000f0: 5ecb 1f3e 7769 ac3d 4e85 babd 4f1f bfbe
-0.065632015 0.12022932 0.15158983 0.07617675 0.1756116 0.09438865 -0.035430785 -0.05229012
0.12371483 0.15857722 0.09324744 -0.06818457 0.17021641 0.14404728 -0.01410463 0.1305014
-0.0925545 -0.073857136 0.1798561 0.17852238 -0.04954702 0.12614748 0.094169036 -0.027255079
-0.09712502 -0.0030851774 -0.013422555 -0.053051505 0.18271029 0.12670377 0.09553056 -0.1008443
-0.06671413 0.12808487 0.067630865 0.16015212 0.10609027 -0.01757395 0.13670154 0.108518325
0.17935202 0.12447093 0.13404857 0.1379609 0.09229302 0.13120085 0.092642635 -0.043746516
-0.12529252 0.17079955 0.1695054 -0.3222924 -0.042487226 -0.05053547 -0.059274398 -0.09219542
-0.05817339 -0.2663333 0.16395217 -0.03463709 0.15604922 0.08418553 -0.09107457 -0.37328574
